ultralytics/models/yolo/enhancer_only.pth (torch, 257986 bytes, 95 tensors)

iim.feat_projector.0.weight f4 [24, 3, 3, 3]
0	0xbd4e48c8	-0.05036238
1	0x3ccf6fc0	0.025321841
2	0x3e359231	0.17731549
3	0x3e3c42e9	0.18384899
4	0x3e2c2d9b	0.16814272
5	0x3e221c8b	0.15831201
6	0x3e05ff43	0.13085656
7	0xbe32284c	-0.17398185
8	0x3e16ff15	0.14745744
9	0x3e02b181	0.12763025
10	0xbd5c0500	-0.053715706
11	0x3e2cb63b	0.1686639
12	0x3cc671e8	0.024224237
13	0x3dfba146	0.1228662
14	0x3dd537f6	0.10411064
15	0x3e34336d	0.17597742
16	0xbe26dffe	-0.16296384
17	0xbe1fb958	-0.15598047
18	0x3ddc0f3a	0.10745092
19	0x3df58e2e	0.11990009
20	0x3dca27ae	0.098708495
21	0x3d521d44	0.05129744
22	0x3dea3b92	0.114371434
23	0xbdc425c4	-0.09577516
24	0xbe3f88a7	-0.18704472
25	0x3d39da30	0.045374095
26	0x3ab6f280	0.0013957769
27	0xbd7a1bfc	-0.061061844
28	0xbe3f080f	-0.18655418
29	0x3e2b7b2b	0.16746204
30	0x3d4dec3c	0.05027412
31	0xbdc74058	-0.097290695
32	0x3d73248c	0.059361026
33	0x3d8f6dce	0.070033655
34	0xbcebf068	-0.028801158
35	0x3c460d90	0.0120881945
36	0xbc608070	-0.013702497
37	0x3d97bf7e	0.07409571
38	0x3e4218dd	0.18954797
39	0xbd9c270f	-0.07624637
40	0x3dabe74e	0.08393727
41	0xbe15ba5b	-0.1462187
42	0x3dbefc1a	0.09325428
43	0x3e01c763	0.12673716
44	0x3e40d8db	0.18832724
45	0xbe3b554a	-0.18294254
46	0x3e2a887d	0.16653629
47	0xbc085830	-0.008321807
48	0x3e01d49b	0.12678759
49	0x3e39c151	0.1814015
50	0xbdb0b396	-0.08628003
51	0xbcd7a638	-0.026324376
52	0xbd62b718	-0.055350393
53	0x3e19527f	0.14972876
54	0x3c1d2870	0.009592161
55	0xbc24ef40	-0.010066807
56	0xbe2dc3e6	-0.1696926
57	0x3e2320b9	0.15930451
58	0xbe40864e	-0.18801233
59	0xbdf77df9	-0.12084574
60	0xbda07cd9	-0.07836313
61	0x3e22afe1	0.15887405
62	0x39c39400	0.00037303567
63	0x3d93d78e	0.07218848
64	0xbdbb6745	-0.091505565
65	0x3c65dfb0	0.014030382
66	0x3e0dff5f	0.13866948
67	0xbd862ff4	-0.06552115
68	0xbe136de2	-0.14397386
69	0x3e3fc239	0.18726434
70	0xba316f00	-0.00067685544
71	0x3d9d98b2	0.0769514
72	0xbe007898	-0.12546003
73	0xbcdd3b68	-0.027005866
74	0xbe4062c2	-0.18787673
75	0x3e22725b	0.15863936
76	0x3e125815	0.14291413
77	0xbd287830	-0.041130245
78	0x3e1d744b	0.15376393
79	0xbd589670	-0.052877843
80	0xbe0d80ac	-0.13818616
81	0x3d627284	0.05528499
82	0xbd9818a3	-0.07426574
83	0xbe3ff1b0	-0.1874454
84	0xbd7e5a8c	-0.06209807
85	0x3cd8c770	0.026462287
86	0x3e2e5fd9	0.1702875
87	0xbd7df970	-0.06200546
88	0x3d16de78	0.036833256
89	0xbd5f6664	-0.054541007
90	0x3d352354	0.044223145
91	0x3e188ff7	0.14898668
92	0x3d93816a	0.07202418
93	0x3dfd15aa	0.12357648
94	0xbbc22e00	-0.005925894
95	0x3c003130	0.007824227
96	0xbb8c8a80	-0.0042889714
97	0x3ddea536	0.10871355
98	0xbdece387	-0.11566835
99	0xbe3946f9	-0.1809348
100	0x3dc67d06	0.09691815
101	0xbd461ecc	-0.048369214
102	0xbda566e8	-0.080762684
103	0x3e2ccee7	0.16875802
104	0xbe2d6173	-0.16931705
105	0xbda2e276	-0.0795335
106	0xbda06f38	-0.07833713
107	0xbb6d5980	-0.0036216676
108	0x3e338467	0.17530976
109	0xbdd68e57	-0.10476368
110	0xbdaaf348	-0.083471835
111	0xbdd86d43	-0.10567715
112	0xbd54f850	-0.05199462
113	0xbd8c05ec	-0.06837067
114	0x3df57f56	0.11987178
115	0xbd2d2af8	-0.042277306
116	0xbe2a0b2c	-0.16605824
117	0xbe222264	-0.15833431
118	0xbc8aac38	-0.016927823
119	0xbe178390	-0.14796281
120	0x3e0e08c7	0.13870536
121	0xbe29b74f	-0.16573833
122	0x3d2ffd0c	0.042965934
123	0x3e16b2a3	0.14716582
124	0xbe0969ef	-0.13419317
125	0xbe27544b	-0.16340749
126	0xbe0b4970	-0.13602233
127	0xbd3fdf64	-0.0468439
128	0xbdce0ed3	-0.10061421
129	0xbe0a1a16	-0.13486513
130	0x3dbdca62	0.09267117
131	0xbe4186a5	-0.18899019
132	0x3e0af805	0.13571174
133	0x3e1acfbb	0.15118305
134	0xbe2f1272	-0.1709688
135	0xbe408625	-0.18801172
136	0xbc6237a0	-0.013807207
137	0xbd628a34	-0.055307582
138	0x3e10ab95	0.14127953
139	0x3dd8a13e	0.105776295
140	0x3cf874d0	0.030329138
141	0xbd8b8308	-0.068121016
142	0xbe18a5de	-0.14907023
143	0x3e24d8bf	0.16098307
144	0x3d7a31c4	0.061082616
145	0xbc455b40	-0.0120456815
146	0xbdd6af86	-0.10482697
147	0xbcfa3db8	-0.030547008
148	0x3e3af81d	0.1825871
149	0x3d9fa97a	0.07795997
150	0xbe04873e	-0.12942216
151	0x3ddf0d02	0.10891153
152	0xbe34613c	-0.17615217
153	0xbd741c2c	-0.05959718
154	0xbe1382c0	-0.14405346
155	0xbce0ea68	-0.027455524
156	0xbdc99096	-0.09842031
157	0xbe3779a8	-0.17917502
158	0x3decbbfa	0.11559291
159	0xbd1c2848	-0.038124353
160	0xbd04d518	-0.032429785
161	0xbe3b5139	-0.18292703
162	0x3e143e4d	0.14476891
163	0x3d55e6b8	0.052221984
164	0x3cadbef8	0.021209225
165	0xbe35e5e7	-0.17763482
166	0x3dd7752a	0.10520394
167	0xbdc98b92	-0.09841074
168	0xbd971d70	-0.07378662
169	0xbd7da7d0	-0.061927617
170	0x3cdf0b60	0.027227104
171	0xbdf08f89	-0.11746127
172	0x3d55b5e8	0.052175432
173	0x3e2352d5	0.15949567
174	0x3e0f3673	0.13985614
175	0xbe215758	-0.15755975
176	0x3e02a763	0.12759165
177	0xbdc1728b	-0.094456755
178	0x3cbdbc78	0.023161158
179	0xbdfdf098	-0.12399405
180	0xbe373038	-0.17889488
181	0x3e00f9f9	0.12595357
182	0x3d134d14	0.03596218
183	0x3d2e2830	0.042518795
184	0x3c65e450	0.014031485
185	0xbd37b310	-0.0448485
186	0xbd6383cc	-0.055545613
187	0x3e177641	0.14791204
188	0x3dc6cf0e	0.09707461
189	0x3cccc860	0.02499789
190	0xbdd813a4	-0.10550621
191	0xbb88ffc0	-0.0041808784
192	0xbe26eb03	-0.16300587
193	0xbe1cfd57	-0.15331016
194	0xbe0d239a	-0.13783112
195	0x3de9c94a	0.11415346
196	0xbe2d6973	-0.16934757
197	0x3d74cedc	0.05976759
198	0xbe1af492	-0.15132359
199	0x3d4dea50	0.050272286
200	0xbe075f6a	-0.13219991
201	0x3d72fe14	0.05932434
202	0xbb38de80	-0.0028208792
203	0x3c702e90	0.014659539
204	0xbe0cceee	-0.13750812
205	0xbd5ebbbc	-0.054378256
206	0xbda6347a	-0.08115478
207	0xbaebd680	-0.0017993003
208	0xbda282fc	-0.079351395
209	0x3e3aa24b	0.18225972
210	0x3da33a0a	0.079700544
211	0xbd5ed660	-0.054403663
212	0x3e12c0ad	0.14331312
213	0x3dd3a7ca	0.103347376
214	0x3dbc1602	0.09183885
215	0x3c557600	0.013028622
216	0xbd37ac2c	-0.04484193
217	0xbe1c20a4	-0.15246826
218	0xbd12e06c	-0.035858557
219	0xbd3abe80	-0.04559183
220	0xbe0a713e	-0.13519761
221	0xbdb08d3e	-0.0862069
222	0x3c27a730	0.010232732
223	0xbd3c1b44	-0.04592444
224	0x3e0ac7f1	0.13552834
225	0xbe28261d	-0.16420789
226	0xbb9ee720	-0.0048493296
227	0x3e301ddd	0.17198892
228	0xbe3bc7b9	-0.18337907
229	0x3c557cf0	0.013030276
230	0x3b923860	0.004462287
231	0xbc37fbf0	-0.0112295
232	0x3d598ff4	0.0531158
233	0xbc465200	-0.012104511
234	0x3e1460dd	0.14490075
235	0x3e138135	0.14404757
236	0x3dcc39a6	0.09971933
237	0x3d322264	0.04348983
238	0xbde1f83c	-0.11033675
239	0x3e274c2f	0.16337655
240	0x3da1e4de	0.07904981
241	0x3e0c18dd	0.1368136
242	0xbdb7b2c8	-0.08969647
243	0xbd7cddfc	-0.06173514
244	0xbbbc7a20	-0.005751863
245	0x3d6c41d4	0.057679966
246	0x3df68e5a	0.1203887
247	0x3cc4feb8	0.02404724
248	0xbd8b3760	-0.06797671
249	0x3d046a90	0.03232819
250	0xbd26835c	-0.040652618
251	0xbe21a7c5	-0.15786655
252	0x3d4bfe78	0.049803227
253	0xbda7b08e	-0.08187972
254	0xbd055370	-0.032550275
255	0xbe00a316	-0.12562212

iim.feat_projector.0.bias f4 [24]
0	0xbdd8e968	-0.10591394
1	0xbdf4b2b9	-0.11948151
2	0x3dd2749a	0.10276146
3	0xbd0d7a30	-0.034540355
4	0x3dbd2d96	0.092372105
5	0xbe26d802	-0.16293338
6	0xbde098a7	-0.10966616
7	0x3ddb70e6	0.10714893
8	0xbe3148d5	-0.1731294
9	0x3d7c43c4	0.061588064
10	0x3de92852	0.113846436
11	0xbd122934	-0.035683826
12	0xbb4cd8c0	-0.0031257123
13	0x3d103288	0.03520444
14	0x3d680f9c	0.05665551
15	0xbd9054c2	-0.07047416
16	0x3e1bc82f	0.15213083
17	0xbe1c641a	-0.1527256
18	0x3d54b95c	0.051934585
19	0x3c574380	0.013138652
20	0xbc858638	-0.016299352
21	0xbde675f5	-0.11252967
22	0x3d5ab780	0.053397655
23	0x3e0c1637	0.1368035

iim.feat_projector.1.weight f4 [24]
0	0x3f800000	1.0
1	0x3f800000	1.0
2	0x3f800000	1.0
3	0x3f800000	1.0
4	0x3f800000	1.0
5	0x3f800000	1.0
6	0x3f800000	1.0
7	0x3f800000	1.0
8	0x3f800000	1.0
9	0x3f800000	1.0
10	0x3f800000	1.0
11	0x3f800000	1.0
12	0x3f800000	1.0
13	0x3f800000	1.0
14	0x3f800000	1.0
15	0x3f800000	1.0
16	0x3f800000	1.0
17	0x3f800000	1.0
18	0x3f800000	1.0
19	0x3f800000	1.0
20	0x3f800000	1.0
21	0x3f800000	1.0
22	0x3f800000	1.0
23	0x3f800000	1.0

iim.feat_projector.1.bias f4 [24]
0	0x00000000	0.0
1	0x00000000	0.0
2	0x00000000	0.0
3	0x00000000	0.0
4	0x00000000	0.0
5	0x00000000	0.0
6	0x00000000	0.0
7	0x00000000	0.0
8	0x00000000	0.0
9	0x00000000	0.0
10	0x00000000	0.0
11	0x00000000	0.0
12	0x00000000	0.0
13	0x00000000	0.0
14	0x00000000	0.0
15	0x00000000	0.0
16	0x00000000	0.0
17	0x00000000	0.0
18	0x00000000	0.0
19	0x00000000	0.0
20	0x00000000	0.0
21	0x00000000	0.0
22	0x00000000	0.0
23	0x00000000	0.0

iim.feat_projector.1.running_mean f4 [24]
0	0x00000000	0.0
1	0x00000000	0.0
2	0x00000000	0.0
3	0x00000000	0.0
4	0x00000000	0.0
5	0x00000000	0.0
6	0x00000000	0.0
7	0x00000000	0.0
8	0x00000000	0.0
9	0x00000000	0.0
10	0x00000000	0.0
11	0x00000000	0.0
12	0x00000000	0.0
13	0x00000000	0.0
14	0x00000000	0.0
15	0x00000000	0.0
16	0x00000000	0.0
17	0x00000000	0.0
18	0x00000000	0.0
19	0x00000000	0.0
20	0x00000000	0.0
21	0x00000000	0.0
22	0x00000000	0.0
23	0x00000000	0.0

iim.feat_projector.1.running_var f4 [24]
0	0x3f800000	1.0
1	0x3f800000	1.0
2	0x3f800000	1.0
3	0x3f800000	1.0
4	0x3f800000	1.0
5	0x3f800000	1.0
6	0x3f800000	1.0
7	0x3f800000	1.0
8	0x3f800000	1.0
9	0x3f800000	1.0
10	0x3f800000	1.0
11	0x3f800000	1.0
12	0x3f800000	1.0
13	0x3f800000	1.0
14	0x3f800000	1.0
15	0x3f800000	1.0
16	0x3f800000	1.0
17	0x3f800000	1.0
18	0x3f800000	1.0
19	0x3f800000	1.0
20	0x3f800000	1.0
21	0x3f800000	1.0
22	0x3f800000	1.0
23	0x3f800000	1.0

iim.fuse_net.0.weight f4 [32, 24, 3, 3]
0	0xbd62a554	-0.05533345
1	0xbd0ffb91	-0.03515202
2	0x3d72073c	0.05908893
3	0x3d58bf5c	0.05291687
4	0xbd3a4e14	-0.045484617
5	0x3ca3df40	0.020003915
6	0x3d86a294	0.06573978
7	0xbc8dc9da	-0.017308164
8	0xbbd577b8	-0.0065145157
9	0x3d7c0d50	0.061536133
10	0xbcc43eaa	-0.023955662
11	0x3cc963fc	0.02458381
12	0xbc350314	-0.011048097
13	0xbca7a274	-0.020463206
14	0xbd1d6599	-0.03842697
15	0x3c2013b0	0.009770319
16	0x3aab82c0	0.0013085231
17	0x3bf367a0	0.0074281245
18	0xbd0fb4b1	-0.03508443
19	0xbc4ba3c0	-0.012429178
20	0xbd4535d5	-0.04814704
21	0xbd3af424	-0.045642987
22	0xbcadacfa	-0.021200646
23	0xbd010524	-0.031499043
24	0x3c0612c0	0.008183181
25	0x3c8175f4	0.015803315
26	0x3d53cffa	0.051712014
27	0xbd170bff	-0.036876675
28	0xbd856a7e	-0.065144524
29	0x3d850a62	0.06496121
30	0xba69c900	-0.0008918196
31	0x3bf93c70	0.0076060817
32	0xbd7a5054	-0.061111763
33	0xbcd0fe0c	-0.025511764
34	0x3d58df20	0.052947164
35	0xbd7c5bb2	-0.061610885
36	0x3d43e304	0.04782392
37	0xbd7ea7dd	-0.062171806
38	0x3d185b5c	0.037196502
39	0xbccffb44	-0.025388367
40	0x3cf81628	0.030284002
41	0x3c2e86c0	0.010652244
42	0x3d59e7a0	0.05319941
43	0xbcb7c076	-0.02243064
44	0x3c608258	0.013702951
45	0xbd00a784	-0.031409755
46	0xbb613740	-0.0034365207
47	0x3d214dea	0.039380945
48	0x3c1ddaf8	0.009634726
49	0x3cd23e48	0.025664464
50	0xbcddd322	-0.027078215
51	0x3b81c5e0	0.003960356
52	0x3d70359c	0.058644876
53	0xbd8535cd	-0.06504402
54	0x3d7f6d60	0.062360168
55	0x3c3cee88	0.01153148
56	0x3ccb4c8c	0.024816774
57	0x3bcbd700	0.0062206984
58	0xbd2b71e6	-0.04185667
59	0xbc871492	-0.0164893
60	0x3ba83160	0.005132839
61	0x3d5df67a	0.054190136
62	0xbcd147aa	-0.025546867
63	0x3d4c0896	0.049812876
64	0x3d3d3a3a	0.046198107
65	0xbd3d4bb6	-0.04621478
66	0x3d8b4f46	0.068022296
67	0x3c39a2d8	0.011330329
68	0x3d41ba2c	0.047296688
69	0xbc64ea14	-0.013971824
70	0xbc0f2da0	-0.008738905
71	0xbd4ee97e	-0.050515644
72	0x3cd47c2c	0.025938116
73	0xbc8413f6	-0.0161228
74	0xbd3434a5	-0.04399552
75	0xbbfaaea8	-0.007650215
76	0x3d482b34	0.048869327
77	0xbd27b296	-0.040941797
78	0x3a13e500	0.00056417286
79	0x3cbfe438	0.023424253
80	0x3d0c5e44	0.034269586
81	0xbd5a9664	-0.05336608
82	0x3bd31970	0.0064422414
83	0x3d07b512	0.033131666
84	0xbd8a6516	-0.06757562
85	0x3d768d20	0.06019318
86	0xbd835cbd	-0.06414173
87	0xbc342e7c	-0.010997411
88	0x3d154f14	0.036452368
89	0x3d1b7c40	0.03796029
90	0x3ce8ac54	0.028402485
91	0xbc550fc8	-0.013004251
92	0xbccc149c	-0.024912171
93	0x3d7c8d84	0.061658397
94	0x3d53351c	0.05156432
95	0x3d0bdca6	0.034145974
96	0xbcff4d86	-0.031164896
97	0x3d1f33ec	0.038867876
98	0xbd577452	-0.052601166
99	0xbd6403f2	-0.055667825
100	0x3d21eb64	0.039531127
101	0x3cbed9a8	0.023297146
102	0x3d6c8d7c	0.057752118
103	0x3c1da500	0.009621859
104	0x3ceec7a4	0.02914793
105	0xbd2ba49c	-0.04190503
106	0xbcac2384	-0.021013029
107	0xbcd9f168	-0.02660437
108	0x3b5d51e0	0.0033770725
109	0x3d37ea30	0.044901073
110	0x3c54b288	0.012982018
111	0xbc8fd386	-0.017556917
112	0x3cfcdd84	0.030867346
113	0xbd11c6ee	-0.035590105
114	0xbc798824	-0.015230212
115	0x3c985a8c	0.018597864
116	0xbc2a7900	-0.010404825
117	0x3d5e0cf6	0.05421158
118	0xbb695d20	-0.0035608485
119	0x3cefb2c0	0.02926004
120	0xbd2e4014	-0.04254158
121	0xbd1735e4	-0.03691663
122	0xba0b9f00	-0.0005326122
123	0x3c28de60	0.010306925
124	0x3d1c86e2	0.03821457
125	0xbd897bb0	-0.06713045
126	0x3d31892a	0.0433437
127	0xbc83485c	-0.016025715
128	0xbd14df85	-0.036345977
129	0xbc6c8740	-0.014436543
130	0x3d6f5c78	0.058437794
131	0x3d3e2222	0.04641927
132	0xbd20b6ae	-0.039236717
133	0xb9eaba00	-0.0004477054
134	0x3d3ef940	0.046624422
135	0xbbcbc720	-0.006218806
136	0xbbcd4d78	-0.0062653385
137	0x3c8ab19c	0.016930394
138	0xbd3b2ec0	-0.04569888
139	0x3d864466	0.06556015
140	0xba92b5c0	-0.0011193082
141	0xbd0e9f38	-0.03481981
142	0x3d51bf7c	0.051208004
143	0xbacd8a40	-0.001568146
144	0xbd2821b6	-0.041047774
145	0x3d74c344	0.059756532
146	0x3ce9a7b8	0.028522357
147	0xbd00d310	-0.031451285
148	0x3d2e03f8	0.042484254
149	0xbc96eac0	-0.018422484
150	0x3d8b03d6	0.06787841
151	0x3c52cd20	0.012866288
152	0xba3f9080	-0.0007307604
153	0x3c09e8b0	0.008417293
154	0xbd62d9b6	-0.055383407
155	0xbb0ab940	-0.0021167547
156	0xbd3a9744	-0.045554414
157	0xbd837735	-0.06419221
158	0x3c5ffd70	0.013671264
159	0x3cba96ec	0.022777043
160	0xbd6d8710	-0.057990134
161	0x3d238dce	0.039930157
162	0x3d7428f8	0.059609383
163	0xbc36233c	-0.011116799
164	0x3c2e2a60	0.01063022
165	0x3d518ea0	0.05116141
166	0x3d45ec3a	0.048320986
167	0xbbc41860	-0.005984351
168	0xbd083cb9	-0.033261035
169	0x3bb74ee0	0.0055941194
170	0x3d08f56a	0.03343717
171	0x3c1b8b90	0.0094937235
172	0x3d321fc4	0.043487325
173	0xbca69d34	-0.020338632
174	0x3cef743c	0.02923023
175	0x3d31c48a	0.043400325
176	0x3d1f6d34	0.038922504
177	0xbd85e384	-0.06537536
178	0xbd3cfdf0	-0.04614061
179	0x3ce28120	0.027649462
180	0xbd7ac1cc	-0.061219975
181	0xbd4a85b7	-0.049443927
182	0xbca06e42	-0.019583825
183	0x3cf51934	0.029919244
184	0x3d59658c	0.05307536
185	0x3d37d05e	0.04487645
186	0x3cccf50c	0.025019191
187	0xbc8494ee	-0.016184296
188	0x3d2e1d76	0.042508565
189	0x3cd75234	0.026284315
190	0xbd0ba884	-0.034096256
191	0x3d3356aa	0.04378382
192	0xbca4f136	-0.02013455
193	0xbd276f51	-0.040877644
194	0x3ca476e0	0.020076215
195	0x3ba8bd50	0.005149521
196	0x3d690754	0.056891754
197	0xbcf98b98	-0.030462071
198	0xbd36a044	-0.044586435
199	0x3d7be29c	0.06149541
200	0xbb35c560	-0.0027736053
201	0xbd50eeec	-0.051009104
202	0x3c797298	0.015225075
203	0x3b0f27a0	0.0021843687
204	0xbd82aac0	-0.06380224
205	0xbcae8812	-0.021305118
206	0x3d7f09b4	0.062265113
207	0x3c931824	0.017955847
208	0x3d4f0f50	0.050551713
209	0xbcd0693e	-0.025440808
210	0xbcaa7ba6	-0.020810913
211	0xbd7e925c	-0.062151298
212	0x3ca3b0fc	0.019981854
213	0xbd0f17a5	-0.03493466
214	0xbd1c0851	-0.03809387
215	0xbd4c9124	-0.049943104
216	0x3d0a2706	0.033728622
217	0xbd6e67c0	-0.058204412
218	0x3c8dcba8	0.017309025
219	0xbcd39a0a	-0.025830287
220	0xbd3f761d	-0.0467435
221	0xbd155f9b	-0.03646813
222	0xbd4f7130	-0.050645053
223	0x3d4e4506	0.050358795
224	0x3a669d80	0.0008797273
225	0xbc78d3c4	-0.015187208
226	0xbbe541c8	-0.006996367
227	0x3ca5e96c	0.020252906
228	0xbcfb1138	-0.030647859
229	0x3d5c46d8	0.0537785
230	0x3c547ee0	0.0129697025
231	0x3d8ad3b2	0.06778659
232	0x3d306104	0.04306127
233	0x3c7f8118	0.015594743
234	0x3d69cda4	0.05708088
235	0xbb9d7a30	-0.0048058257
236	0x3d1dac4e	0.0384944
237	0xbd6c5b59	-0.057704303
238	0xbd579a91	-0.05263764
239	0x3d8010b6	0.06253187
240	0x3c5e4e50	0.013568476
241	0x3d0e59c2	0.03475357
242	0x3d3b835e	0.04577958
243	0x3d1ae910	0.037819922
244	0x3d1c59c2	0.038171537
245	0xbce89210	-0.02838996
246	0x3c90ae44	0.017661221
247	0xbc5ba114	-0.013405103
248	0xbcb21ccc	-0.021742247
249	0xbb55bb80	-0.003261298
250	0xbd123d45	-0.035702962
251	0x3d5bf074	0.05369611
252	0xbc3c809c	-0.011505272
253	0x3d51cf0c	0.051222846
254	0x3d61b63c	0.055105433
255	0xbd67d45c	-0.056599006

iim.fuse_net.0.bias f4 [32]
0	0xbd4f9ec2	-0.050688513
1	0xbd79d95e	-0.060998313
2	0xbc06b3c8	-0.008221574
3	0x3c69e8d8	0.014276706
4	0xbcc4aaae	-0.024007168
5	0x3d4692be	0.048479788
6	0x3d4624f6	0.048375092
7	0x3d81dc06	0.06340794
8	0x3bf4ef10	0.0074747875
9	0x3b28c040	0.0025749356
10	0x3bcf32c0	0.0063231885
11	0x3c8f4014	0.01748661
12	0x3d79af34	0.060958102
13	0x3d672bd8	0.056438297
14	0x3d36163c	0.044454798
15	0xbd178b4d	-0.036998082
16	0xbcadf646	-0.021235596
17	0xbc8dbc5c	-0.01730173
18	0xbd2fe435	-0.042942245
19	0xbd5d2e98	-0.053999513
20	0x3d3dc1cc	0.046327397
21	0xbd0863ad	-0.033298183
22	0x3c91b88c	0.017788194
23	0x3d611888	0.054955035
24	0x3c946c04	0.018117912
25	0x3d35a852	0.044349976
26	0xbd1306ba	-0.035895087
27	0x3d7003cc	0.05859737
28	0x3d3daa30	0.04630488
29	0x3d57171a	0.052512266
30	0xbd3f38a6	-0.046684884
31	0x3c16a6a0	0.009195

iim.fuse_net.1.weight f4 [32]
0	0x3f800000	1.0
1	0x3f800000	1.0
2	0x3f800000	1.0
3	0x3f800000	1.0
4	0x3f800000	1.0
5	0x3f800000	1.0
6	0x3f800000	1.0
7	0x3f800000	1.0
8	0x3f800000	1.0
9	0x3f800000	1.0
10	0x3f800000	1.0
11	0x3f800000	1.0
12	0x3f800000	1.0
13	0x3f800000	1.0
14	0x3f800000	1.0
15	0x3f800000	1.0
16	0x3f800000	1.0
17	0x3f800000	1.0
18	0x3f800000	1.0
19	0x3f800000	1.0
20	0x3f800000	1.0
21	0x3f800000	1.0
22	0x3f800000	1.0
23	0x3f800000	1.0
24	0x3f800000	1.0
25	0x3f800000	1.0
26	0x3f800000	1.0
27	0x3f800000	1.0
28	0x3f800000	1.0
29	0x3f800000	1.0
30	0x3f800000	1.0
31	0x3f800000	1.0

iim.fuse_net.1.bias f4 [32]
0	0x00000000	0.0
1	0x00000000	0.0
2	0x00000000	0.0
3	0x00000000	0.0
4	0x00000000	0.0
5	0x00000000	0.0
6	0x00000000	0.0
7	0x00000000	0.0
8	0x00000000	0.0
9	0x00000000	0.0
10	0x00000000	0.0
11	0x00000000	0.0
12	0x00000000	0.0
13	0x00000000	0.0
14	0x00000000	0.0
15	0x00000000	0.0
16	0x00000000	0.0
17	0x00000000	0.0
18	0x00000000	0.0
19	0x00000000	0.0
20	0x00000000	0.0
21	0x00000000	0.0
22	0x00000000	0.0
23	0x00000000	0.0
24	0x00000000	0.0
25	0x00000000	0.0
26	0x00000000	0.0
27	0x00000000	0.0
28	0x00000000	0.0
29	0x00000000	0.0
30	0x00000000	0.0
31	0x00000000	0.0

iim.fuse_net.1.running_mean f4 [32]
0	0x00000000	0.0
1	0x00000000	0.0
2	0x00000000	0.0
3	0x00000000	0.0
4	0x00000000	0.0
5	0x00000000	0.0
6	0x00000000	0.0
7	0x00000000	0.0
8	0x00000000	0.0
9	0x00000000	0.0
10	0x00000000	0.0
11	0x00000000	0.0
12	0x00000000	0.0
13	0x00000000	0.0
14	0x00000000	0.0
15	0x00000000	0.0
16	0x00000000	0.0
17	0x00000000	0.0
18	0x00000000	0.0
19	0x00000000	0.0
20	0x00000000	0.0
21	0x00000000	0.0
22	0x00000000	0.0
23	0x00000000	0.0
24	0x00000000	0.0
25	0x00000000	0.0
26	0x00000000	0.0
27	0x00000000	0.0
28	0x00000000	0.0
29	0x00000000	0.0
30	0x00000000	0.0
31	0x00000000	0.0

iim.fuse_net.1.running_var f4 [32]
0	0x3f800000	1.0
1	0x3f800000	1.0
2	0x3f800000	1.0
3	0x3f800000	1.0
4	0x3f800000	1.0
5	0x3f800000	1.0
6	0x3f800000	1.0
7	0x3f800000	1.0
8	0x3f800000	1.0
9	0x3f800000	1.0
10	0x3f800000	1.0
11	0x3f800000	1.0
12	0x3f800000	1.0
13	0x3f800000	1.0
14	0x3f800000	1.0
15	0x3f800000	1.0
16	0x3f800000	1.0
17	0x3f800000	1.0
18	0x3f800000	1.0
19	0x3f800000	1.0
20	0x3f800000	1.0
21	0x3f800000	1.0
22	0x3f800000	1.0
23	0x3f800000	1.0
24	0x3f800000	1.0
25	0x3f800000	1.0
26	0x3f800000	1.0
27	0x3f800000	1.0
28	0x3f800000	1.0
29	0x3f800000	1.0
30	0x3f800000	1.0
31	0x3f800000	1.0

iim.fuse_net.3.weight f4 [3, 32, 3, 3]
0	0x3d5bd9f1	0.053674642
1	0x3be7ed28	0.007077832
2	0xbc408900	-0.011751413
3	0x3c9653ee	0.018350568
4	0xbc6e5280	-0.014546037
5	0x387f1800	6.081909e-05
6	0x3bca3308	0.006170634
7	0x3d1d8009	0.038452182
8	0x3d37ee8b	0.044905227
9	0xbd4dbf4b	-0.05023126
10	0x3d0e359b	0.03471909
11	0xbd2f2e0c	-0.042768523
12	0x3d290ab9	0.04126999
13	0xbcfbafbf	-0.03072345
14	0x3d2380ad	0.039917637
15	0x3c7c747c	0.015408631
16	0xbcc9fd82	-0.024657015
17	0xbc8307f8	-0.01599501
18	0xbc1c8308	-0.009552725
19	0xbcba0a90	-0.022710115
20	0xbd526a46	-0.05137088
21	0xbc975dc0	-0.01847732
22	0xbcb3f218	-0.021966025
23	0x3c97f446	0.018549096
24	0x3cd4e28a	0.025986928
25	0xbc60fcdc	-0.013732161
26	0x3ca8c8de	0.020603593
27	0x3ad88120	0.0016517974
28	0xbd236078	-0.03988692
29	0x3d3cf78d	0.04613452
30	0xbc870abe	-0.016484614
31	0xbcca487e	-0.02469277
32	0x3ce52602	0.027972225
33	0xbd2199bf	-0.039453264
34	0x3bb8eac8	0.0056432225
35	0xbb0197d0	-0.0019774325
36	0x3d2c7e8b	0.04211287
37	0xbc7bd2a0	-0.015370041
38	0xbcadafd2	-0.021202002
39	0xbd633ffb	-0.05548094
40	0x3ce9acca	0.028524775
41	0x3d1e1613	0.03859527
42	0x3c47f85c	0.01220521
43	0xbc971120	-0.018440783
44	0xbc317d08	-0.010833032
45	0x3d0a87f1	0.03382105
46	0xbcd702d0	-0.026246458
47	0xbd5db1d0	-0.054124653
48	0xbd1376a0	-0.0360018
49	0x3d00eae1	0.031473998
50	0x3ceb4332	0.028718565
51	0x3d27ae97	0.040937986
52	0xbcbca948	-0.023029938
53	0xbb417640	-0.0029519945
54	0xbcd24c90	-0.025671273
55	0xbc8d1cc6	-0.017225634
56	0x3ce9a416	0.028520625
57	0x3d28e923	0.04123796
58	0x3cf175da	0.029475141
59	0x3c8ae89e	0.016956624
60	0x3b2f7790	0.0026774146
61	0x3d20cd8f	0.039258536
62	0xbd6fa9ae	-0.05851143
63	0x3d1b9f23	0.03799356
64	0x3d1c7033	0.03819294
65	0x3cdffe4e	0.027342942
66	0x3d6664d5	0.056248505
67	0xbd14b3c4	-0.03630425
68	0x3d6933a7	0.056934025
69	0xbd2d053a	-0.042241313
70	0x3d58e08f	0.05294853
71	0x3cb481d2	0.02203456
72	0x3ae49be0	0.0017441474
73	0xbd649185	-0.05580284
74	0x3d324e45	0.043531675
75	0x3c83cd7a	0.01608919
76	0x3ccd8fda	0.025093008
77	0x3b125c80	0.0022332966
78	0x3d1c6503	0.03818227
79	0x39adc880	0.00033146515
80	0xbce51558	-0.027964279
81	0xbcffe6a9	-0.031237917
82	0x3b1b29d0	0.0023676045
83	0xbbc5ccd0	-0.0060363784
84	0xbc31e45c	-0.010857668
85	0xbc5a84a8	-0.013337292
86	0xba9642a0	-0.0011463948
87	0x3cb8d16a	0.022560794
88	0xbd260f54	-0.04054196
89	0x3d5ae4bb	0.05344079
90	0xbc026d1c	-0.007960584
91	0xbd5f5ea5	-0.05453362
92	0x3cd0456a	0.025423724
93	0xbb3bf1b0	-0.0028677993
94	0xbd1004b6	-0.035160743
95	0xbc59529c	-0.0132643245
96	0x3bbbf848	0.0057363845
97	0x3d2f4feb	0.042800825
98	0x3c48367c	0.012220021
99	0xbd66e52a	-0.05637089
100	0xbcd0b83e	-0.025478479
101	0x3c976c5a	0.018484283
102	0xbc4d1418	-0.012516998
103	0xbd40665b	-0.046972614
104	0xbd111a68	-0.035425574
105	0xbd43ec80	-0.047832966
106	0xbd0d9401	-0.034564976
107	0xbc8932a0	-0.016747773
108	0xbd2e8141	-0.042603735
109	0xbd07428e	-0.033022456
110	0xbcd4290c	-0.025898479
111	0xbd1268ba	-0.035744406
112	0x3a8ee100	0.0010900795
113	0x39016a00	0.00012341887
114	0xbd548c0b	-0.051891368
115	0x3c3aac64	0.01139364
116	0xbd450556	-0.048100792
117	0x3d6a9a2b	0.057275932
118	0x3c9e51a2	0.019326035
119	0xbc01c9ec	-0.007921677
120	0x3d5c13d9	0.053729866
121	0x3d1df517	0.038563814
122	0xbc7d7d84	-0.01547182
123	0xbce7f4db	-0.028314998
124	0x3c2fe724	0.010736261
125	0xbd0ca750	-0.03433925
126	0xbc6dde44	-0.014518324
127	0xbd58cc7b	-0.052929383
128	0x3cadf95e	0.021237072
129	0x3d398885	0.04529621
130	0xbd5a5af7	-0.053309407
131	0x39ce2100	0.0003931597
132	0x3d3b6267	0.04574814
133	0xbd598ac4	-0.053110853
134	0x3d41cc93	0.047314238
135	0xbc457114	-0.012050886
136	0xbc0540f4	-0.008133162
137	0x3d69c789	0.057075057
138	0x3ce02e12	0.027365718
139	0x3d26df81	0.040740494
140	0x3d30fea5	0.043211598
141	0x3d3d19d9	0.04616723
142	0xbd69ee5e	-0.05711209
143	0xbd5a9edc	-0.053374156
144	0xbcdd3540	-0.02700293
145	0xbd578bfc	-0.052623734
146	0xbc9e69e2	-0.019337598
147	0xbd6bcd14	-0.057568625
148	0xbd479ff3	-0.048736524
149	0x3d5137c1	0.05107856
150	0xbcaf106e	-0.021370139
151	0xbc67153c	-0.014104184
152	0xbcc6bf4c	-0.02426114
153	0x3d194e99	0.037428472
154	0xbd093646	-0.033499025
155	0x3c337a04	0.010954384
156	0xbd50168a	-0.050802745
157	0x3cbfb722	0.023402754
158	0x3cd4a252	0.025956307
159	0xbc756538	-0.014977746
160	0x3c2f9664	0.010717008
161	0xbcd16cb0	-0.025564522
162	0xbcf67082	-0.030082945
163	0x3b5eb640	0.0033983141
164	0x3d029fb1	0.031890575
165	0xbd706b77	-0.058696236
166	0xbb99e748	-0.0046967603
167	0x3bafd4a8	0.005365927
168	0xbbd89368	-0.006609369
169	0x3d6f0b37	0.058360305
170	0x3bd21768	0.0064114816
171	0x3d3c0d39	0.045911048
172	0x3d24d593	0.040242743
173	0xbcdfb98e	-0.027310159
174	0x3d6d80e9	0.057984266
175	0x3d1d2f6b	0.0383753
176	0x3c89faa2	0.016843144
177	0xbd4fcdaf	-0.050733265
178	0x3cf1088e	0.029423025
179	0xbbc286c0	-0.0059364736
180	0xbbe8aff8	-0.0071010552
181	0x3c83898a	0.016056795
182	0x3d70d63d	0.058798064
183	0x3d06a8cf	0.032875832
184	0xbd3bd92b	-0.045861404
185	0x3c6274d4	0.013821799
186	0x3d0f879f	0.035041448
187	0x3cea9c0a	0.028638858
188	0x3ca6f872	0.02038214
189	0x3d4b0693	0.049566817
190	0xbd3d2bb6	-0.046184264
191	0x3d1de3ad	0.038547207
192	0xbd38e365	-0.045138735
193	0x3c940642	0.01806939
194	0x3d704ee5	0.05866899
195	0xbcefdd64	-0.029280372
196	0x3d357777	0.044303384
197	0x3ce00e72	0.027350638
198	0x3cee8a06	0.02911855
199	0xbb8dc288	-0.0043261684
200	0xbcef1e75	-0.029189328
201	0x3cc9bc22	0.024625842
202	0x3d2a7131	0.041611854
203	0x3d6191f1	0.05507082
204	0xbc8efd5c	-0.017454796
205	0x3c92e866	0.017933082
206	0xbce16c00	-0.027517319
207	0xbc34e5ec	-0.011041146
208	0xbcb14994	-0.02164153
209	0x3c16cc0c	0.009203922
210	0x3cc54a7e	0.024083372
211	0x3d564455	0.05231126
212	0xbd14d299	-0.036333654
213	0x3c46288c	0.012094628
214	0x3d30bcfb	0.043148976
215	0xbd69d243	-0.057085287
216	0x3af42880	0.0018627793
217	0xbd20cd40	-0.03925824
218	0xbc0113b8	-0.0078782365
219	0xbd2f0afa	-0.042735077
220	0x3d4a755f	0.04942834
221	0x3cb3c94e	0.021946575
222	0x3c795f44	0.015220467
223	0xbc9b64e2	-0.018969003
224	0xbd5736b4	-0.052542403
225	0xbc5442cc	-0.012955379
226	0xbd4e1ab4	-0.050318435
227	0x3d01447d	0.031559456
228	0xbd1c8650	-0.038214028
229	0xbd2d9fd9	-0.04238877
230	0xbd059d39	-0.032620642
231	0xbc47a460	-0.012185186
232	0x3b197200	0.0023413897
233	0xbd0b7e6b	-0.03405611
234	0x3d2af473	0.04173703
235	0xbd4ca93b	-0.04996608
236	0x3d0cd9f3	0.03438754
237	0x3a4a26c0	0.00077114627
238	0x3ada2660	0.0016643517
239	0x3d07de4f	0.033170994
240	0x3d179bd1	0.037013832
241	0xbcb5670c	-0.022143863
242	0xbd4a0cc8	-0.049328595
243	0x3d0dbf89	0.03460649
244	0xbcbaa3ee	-0.022783246
245	0x3d70ed5f	0.058820125
246	0xbd32c88c	-0.043648288
247	0xbcbf56e0	-0.023356855
248	0x3caddc32	0.021223161
249	0x3b941a48	0.0045197345
250	0x3d30f075	0.043198068
251	0x3c99fb6a	0.018796641
252	0xbd101742	-0.03517843
253	0x3d4e4ecb	0.05036811
254	0xbd3823b5	-0.044955928
255	0xbc7c36ec	-0.015393954

iim.fuse_net.3.bias f4 [3]
0	0x3d670d1f	0.056408998
1	0x3d6a5f17	0.05721959
2	0x3d271595	0.040792067

iim.final_fuse.0.weight f4 [32, 56, 3, 3]
0	0x3cd8223c	0.026383512
1	0x3d0c9526	0.034321927
2	0xbcd10fb3	-0.025520181
3	0x3cb1b678	0.021693453
4	0x3bf94a48	0.007607732
5	0xbca1dc24	-0.019758292
6	0x3cd14618	0.025546119
7	0xbd1ba6d2	-0.03800089
8	0xbcb88ec4	-0.022529013
9	0xb8913c00	-6.925315e-05
10	0x3d24fac2	0.040278204
11	0x3ba48ce0	0.0050216764
12	0xbd155bc5	-0.03646447
13	0x3d14d25e	0.036333434
14	0xba3039c0	-0.00067224726
15	0xbc1f01e0	-0.009705037
16	0x3cdeb7c4	0.027187236
17	0xbd216772	-0.039405294
18	0xbb6f6fd0	-0.0036535151
19	0xbcb29ec6	-0.021804225
20	0x3c8c847e	0.017153021
21	0xbd17da0e	-0.037073188
22	0xbbfd94e0	-0.0077386945
23	0xbb3ab800	-0.002849102
24	0xbce11b5c	-0.027478866
25	0xbd271ae9	-0.040797148
26	0xbc8f3f8a	-0.017486352
27	0x3b0c7800	0.002143383
28	0x3d09252a	0.033482708
29	0x3cd11ee8	0.025527433
30	0xbc5ce3f6	-0.0134820845
31	0xbc0fe5b0	-0.008782789
32	0xbc5de64a	-0.013543675
33	0xbbf808d0	-0.00756941
34	0x3bb75618	0.00559498
35	0x3d25b494	0.040455416
36	0xbd356803	-0.044288646
37	0x3d0c7758	0.034293503
38	0x3aa3e000	0.001250267
39	0x3cdbcae0	0.026830137
40	0xbcb8108b	-0.022468826
41	0x3cdc9048	0.026924267
42	0xbd06d2a7	-0.032915737
43	0x3c798c20	0.015231162
44	0xbd00ae3d	-0.031416167
45	0x3b893370	0.00418704
46	0xbc257cc8	-0.010100551
47	0xba7f9ac0	-0.00097505376
48	0xbd1ed174	-0.03877397
49	0x3d00b230	0.031419933
50	0x3c22c3f8	0.009934418
51	0xbd005a5a	-0.031336166
52	0x3cac1a54	0.021008648
53	0x3c3d5a98	0.011557244
54	0x3bffc158	0.007805031
55	0xbd12ac20	-0.035808682
56	0x3cadd538	0.021219835
57	0xbd33581c	-0.0437852
58	0x3ca5cfcc	0.020240687
59	0x3c59e3fc	0.013298985
60	0x3d1ba62a	0.038000263
61	0xbd24aaf3	-0.040202092
62	0xbcb3d5b3	-0.021952486
63	0x3c9c57f4	0.019084908
64	0xbcf0fd96	-0.029417794
65	0xbc86029a	-0.016358662
66	0xbbf368e8	-0.0074282773
67	0xbca09729	-0.019603329
68	0x3b649010	0.0034875907
69	0xbce8b327	-0.028405739
70	0xbc8b51c2	-0.017006759
71	0xbc01c074	-0.00791942
72	0xbd1c544d	-0.038166333
73	0xbbf1b370	-0.007376127
74	0xbbd38190	-0.006454654
75	0xbc736666	-0.014855957
76	0x3bb43788	0.005499784
77	0xbc77a258	-0.015114389
78	0x3d00726c	0.03135912
79	0x3ca94704	0.020663746
80	0xbd230b13	-0.039805483
81	0xbcc7256c	-0.024309836
82	0xbbb6fb10	-0.005584128
83	0x3d12d440	0.03584695
84	0x3ca1a0d0	0.019730002
85	0xbc6ce5b8	-0.014459066
86	0xbc2354d8	-0.009968959
87	0x3cc5a114	0.02412466
88	0x3d32e71e	0.04367744
89	0x3cff3ff0	0.031158417
90	0xbb55aa90	-0.0032602884
91	0xbcaa5405	-0.020792017
92	0xbcab9dc3	-0.02094925
93	0xbbaf96a8	-0.005358536
94	0xbd0ae7ca	-0.033912458
95	0x3c17d4ec	0.009267073
96	0x3d2bb958	0.041924804
97	0xbd044086	-0.032288097
98	0xbd01ac3b	-0.031658392
99	0xbd18c735	-0.037299354
100	0xbc1eae70	-0.009685144
101	0x3d0ddfe2	0.03463734
102	0x3c13d2d0	0.00902243
103	0xbd03c692	-0.032171793
104	0xbbbec338	-0.0058216117
105	0x3d1785ba	0.036992766
106	0xbc3b2a28	-0.011423625
107	0x3cc43e64	0.023955531
108	0x3c7eec68	0.015559293
109	0xbb053e60	-0.0020331368
110	0x3d0e83da	0.034793712
111	0x3d2bfa04	0.04198648
112	0x3c994a80	0.018712282
113	0xbd18aa8b	-0.037272017
114	0x3d1d801a	0.038452245
115	0x3d244f18	0.040114492
116	0xbcfbd375	-0.030740479
117	0xbd0eed42	-0.034894235
118	0xbd1eb39c	-0.038745508
119	0xbcb4f0cf	-0.022087483
120	0x3b7f2f20	0.0038938
121	0x3c47c3ec	0.0121927075
122	0x3d33dbd6	0.043910824
123	0x3c55d064	0.0130501725
124	0xbd1b7f1f	-0.03796303
125	0xbd12b5e0	-0.03581798
126	0x3d03c460	0.0321697
127	0xbb912ee8	-0.0044306405
128	0xbb83b470	-0.0040193126
129	0xbbe69048	-0.0070362426
130	0xbd365659	-0.04451594
131	0xbc604380	-0.013687968
132	0x3c8b397c	0.016995184
133	0x3c82961e	0.015940722
134	0x3bd70298	0.0065615885
135	0x3d293572	0.041310735
136	0xbcb12843	-0.021625644
137	0x3cfbb55c	0.030726127
138	0x3c6b7614	0.014371414
139	0x3cc4e06c	0.024032794
140	0xbc95b21a	-0.018273402
141	0x3ae41cc0	0.0017403588
142	0x3d1d8210	0.038454115
143	0x3b322340	0.0027181655
144	0x3cd49720	0.025950968
145	0xbcaf14bd	-0.021372193
146	0xbc132e34	-0.008983184
147	0xbbcce1f0	-0.00625252
148	0xbd27391e	-0.040825956
149	0x3c790a3c	0.015200194
150	0x3b300270	0.0026856922
151	0x3c86a632	0.01643667
152	0x3c363f04	0.0111234225
153	0xbcda0c93	-0.026617324
154	0x3c5de204	0.013542656
155	0x3cbf718c	0.023369573
156	0x3b0c06e0	0.0021366403
157	0x3cfca79c	0.030841641
158	0xbbf3c248	-0.0074389316
159	0x3d148fcc	0.036269948
160	0x3d022616	0.031774603
161	0xbcd70faf	-0.026252596
162	0x3be10218	0.0068667047
163	0x3d1ef02e	0.038803272
164	0xbd06995a	-0.03286109
165	0xbb1217d0	-0.0022292025
166	0x3cee26ac	0.029071175
167	0x3c9feacc	0.01952114
168	0xbcfdf0d1	-0.03099862
169	0x3d323e28	0.043516308
170	0x3bdf5f08	0.0068167485
171	0xbd364cc9	-0.04450682
172	0xbd3134cd	-0.043263245
173	0xbd1171dc	-0.035508975
174	0xbd1bf3e3	-0.038074385
175	0xbb177450	-0.00231101
176	0xbd303ea8	-0.043028504
177	0xbcc18581	-0.02362323
178	0xbcce5a42	-0.025189523
179	0xbd1f307a	-0.03886459
180	0xbc0f5b2c	-0.008749764
181	0xbc975a2d	-0.018475616
182	0xbcc93225	-0.024560044
183	0x3cb92a10	0.022603065
184	0x3ce33184	0.027733572
185	0xbd2d083c	-0.04224418
186	0x3ca55ef4	0.020186879
187	0xbcb2a49f	-0.021807013
188	0xbd2c69a1	-0.042092923
189	0x3c632dc4	0.013865892
190	0xbadfe420	-0.0017081536
191	0xbd0a8d5f	-0.03382623
192	0xbc8b8a51	-0.017033728
193	0xbb27c6b0	-0.0025600605
194	0x3cfa1adc	0.030530386
195	0xbd2e8a83	-0.042612564
196	0x3cf1a310	0.0294967
197	0x3c947764	0.018123336
198	0xbca05ab7	-0.019574506
199	0x3d1ebf70	0.038756788
200	0x3d347530	0.04405707
201	0x3c5b18ec	0.013372641
202	0x3bdd0358	0.0067447834
203	0xbccff800	-0.02538681
204	0xbcad65bf	-0.02116668
205	0xbc64836a	-0.013947347
206	0x3d15f00c	0.03660588
207	0x3cb6078c	0.022220396
208	0xbc9f8a2f	-0.01947507
209	0xbcd92fbd	-0.026512021
210	0x3b7544f0	0.0037425123
211	0xbcfea7a2	-0.031085793
212	0x3d0ceb62	0.034404166
213	0xbcf92e3d	-0.030417556
214	0x3ccb004c	0.024780415
215	0xbc43ed80	-0.01195848
216	0x3cc6a53c	0.024248712
217	0x3b980450	0.004639186
218	0x3c9d1790	0.019176275
219	0x3c10522c	0.008808654
220	0x3c162ec0	0.0091664195
221	0xbcfec25c	-0.031098537
222	0x3d2a38d2	0.041558094
223	0xbc5a3eda	-0.013320649
224	0x3d1a50cc	0.03767471
225	0xbc79e23a	-0.0152516905
226	0x3c511ff4	0.012763966
227	0xbd2a79cb	-0.041620057
228	0x3d1864e6	0.0372056
229	0x3be3d460	0.0069528073
230	0x3d3177ba	0.04332707
231	0xbc022b90	-0.007944956
232	0x3d1fc0ac	0.039002106
233	0x3b333eb0	0.0027350597
234	0xbd35fe24	-0.04443182
235	0xbd254065	-0.040344615
236	0x3ccc4b90	0.024938375
237	0x3ca24d88	0.01981236
238	0x3d2a2f04	0.041548744
239	0x3d36260c	0.044469878
240	0x3cec7970	0.0288665
241	0x3ccd3a74	0.025052287
242	0x3c08f09c	0.008358147
243	0xbcacef23	-0.021110123
244	0x3bf74910	0.0075465515
245	0x3c845442	0.016153459
246	0xbc50cf20	-0.012744695
247	0xbcf4547a	-0.029825438
248	0xbc8ec6a3	-0.017428702
249	0x3cb0592c	0.021526895
250	0x3d0923b2	0.033481307
251	0xbc24c534	-0.0100567825
252	0xbc1aa748	-0.009439297
253	0x3cfd0cdc	0.03088992
254	0x3d0e69fa	0.034769036
255	0xbcd6c50a	-0.026217002

iim.final_fuse.0.bias f4 [32]
0	0x3d03555c	0.032063827
1	0xbb16c900	-0.002300799
2	0xbca07acf	-0.01958981
3	0xbd07e628	-0.03317848
4	0xbc9b7314	-0.018975772
5	0xbd1b51cc	-0.037919804
6	0x3cc91f60	0.024551094
7	0xbba34348	-0.004982386
8	0x3c509214	0.01273014
9	0xbd02afbf	-0.031905886
10	0x3c9fcf8c	0.019508146
11	0xbb33bd20	-0.002742596
12	0x3c38a568	0.011269905
13	0xbc70151c	-0.01465347
14	0xbd0d68f2	-0.03452391
15	0x3b040280	0.0020143092
16	0x3ba4d808	0.0050306357
17	0xbd26063a	-0.040533282
18	0xba4b4080	-0.00077534467
19	0x3bc848c0	0.006112188
20	0x3c841b24	0.016126223
21	0xbd360b00	-0.044444084
22	0x3cdcb880	0.026943445
23	0x3c9c8c7c	0.019109957
24	0xbc144064	-0.009048555
25	0xbc4c5548	-0.0124715045
26	0x3d00dd5a	0.031461097
27	0xbc294428	-0.010331191
28	0x3caff864	0.021480747
29	0xbcd9b087	-0.026573433
30	0x3ceaf36c	0.028680526
31	0x3c324cc4	0.01088256

iim.final_fuse.1.weight f4 [32]
0	0x3f800000	1.0
1	0x3f800000	1.0
2	0x3f800000	1.0
3	0x3f800000	1.0
4	0x3f800000	1.0
5	0x3f800000	1.0
6	0x3f800000	1.0
7	0x3f800000	1.0
8	0x3f800000	1.0
9	0x3f800000	1.0
10	0x3f800000	1.0
11	0x3f800000	1.0
12	0x3f800000	1.0
13	0x3f800000	1.0
14	0x3f800000	1.0
15	0x3f800000	1.0
16	0x3f800000	1.0
17	0x3f800000	1.0
18	0x3f800000	1.0
19	0x3f800000	1.0
20	0x3f800000	1.0
21	0x3f800000	1.0
22	0x3f800000	1.0
23	0x3f800000	1.0
24	0x3f800000	1.0
25	0x3f800000	1.0
26	0x3f800000	1.0
27	0x3f800000	1.0
28	0x3f800000	1.0
29	0x3f800000	1.0
30	0x3f800000	1.0
31	0x3f800000	1.0

iim.final_fuse.1.bias f4 [32]
0	0x00000000	0.0
1	0x00000000	0.0
2	0x00000000	0.0
3	0x00000000	0.0
4	0x00000000	0.0
5	0x00000000	0.0
6	0x00000000	0.0
7	0x00000000	0.0
8	0x00000000	0.0
9	0x00000000	0.0
10	0x00000000	0.0
11	0x00000000	0.0
12	0x00000000	0.0
13	0x00000000	0.0
14	0x00000000	0.0
15	0x00000000	0.0
16	0x00000000	0.0
17	0x00000000	0.0
18	0x00000000	0.0
19	0x00000000	0.0
20	0x00000000	0.0
21	0x00000000	0.0
22	0x00000000	0.0
23	0x00000000	0.0
24	0x00000000	0.0
25	0x00000000	0.0
26	0x00000000	0.0
27	0x00000000	0.0
28	0x00000000	0.0
29	0x00000000	0.0
30	0x00000000	0.0
31	0x00000000	0.0

iim.final_fuse.1.running_mean f4 [32]
0	0x00000000	0.0
1	0x00000000	0.0
2	0x00000000	0.0
3	0x00000000	0.0
4	0x00000000	0.0
5	0x00000000	0.0
6	0x00000000	0.0
7	0x00000000	0.0
8	0x00000000	0.0
9	0x00000000	0.0
10	0x00000000	0.0
11	0x00000000	0.0
12	0x00000000	0.0
13	0x00000000	0.0
14	0x00000000	0.0
15	0x00000000	0.0
16	0x00000000	0.0
17	0x00000000	0.0
18	0x00000000	0.0
19	0x00000000	0.0
20	0x00000000	0.0
21	0x00000000	0.0
22	0x00000000	0.0
23	0x00000000	0.0
24	0x00000000	0.0
25	0x00000000	0.0
26	0x00000000	0.0
27	0x00000000	0.0
28	0x00000000	0.0
29	0x00000000	0.0
30	0x00000000	0.0
31	0x00000000	0.0

iim.final_fuse.1.running_var f4 [32]
0	0x3f800000	1.0
1	0x3f800000	1.0
2	0x3f800000	1.0
3	0x3f800000	1.0
4	0x3f800000	1.0
5	0x3f800000	1.0
6	0x3f800000	1.0
7	0x3f800000	1.0
8	0x3f800000	1.0
9	0x3f800000	1.0
10	0x3f800000	1.0
11	0x3f800000	1.0
12	0x3f800000	1.0
13	0x3f800000	1.0
14	0x3f800000	1.0
15	0x3f800000	1.0
16	0x3f800000	1.0
17	0x3f800000	1.0
18	0x3f800000	1.0
19	0x3f800000	1.0
20	0x3f800000	1.0
21	0x3f800000	1.0
22	0x3f800000	1.0
23	0x3f800000	1.0
24	0x3f800000	1.0
25	0x3f800000	1.0
26	0x3f800000	1.0
27	0x3f800000	1.0
28	0x3f800000	1.0
29	0x3f800000	1.0
30	0x3f800000	1.0
31	0x3f800000	1.0

iim.final_fuse.3.weight f4 [3, 32, 3, 3]
0	0x3cc37abe	0.023862239
1	0x3d13efe1	0.03611744
2	0xbd22f4ce	-0.039784245
3	0xbcfbe968	-0.030750945
4	0x3d2db7b3	0.042411517
5	0xbc257104	-0.010097746
6	0xbc3792c8	-0.011204429
7	0xbc2426c4	-0.010019008
8	0xbd636bfc	-0.055522904
9	0x3d0bb1e1	0.034105185
10	0x3d21a4e5	0.039463896
11	0xbc1844a4	-0.009293709
12	0xbb09baf0	-0.0021015964
13	0x3d604dfd	0.054761875
14	0xbcf8f6ff	-0.030391214
15	0xbb915980	-0.004435718
16	0x3d4736ef	0.048636373
17	0xbd06041f	-0.032718774
18	0x3c354124	0.011062894
19	0xba3a6940	-0.00071110204
20	0x3bfb85e8	0.007675875
21	0xbd20ed96	-0.03928908
22	0xbd66a8cf	-0.056313332
23	0xbc4eed70	-0.012629852
24	0xbd42017e	-0.047364704
25	0xbd3fd17b	-0.046830636
26	0x3d3d85df	0.046270248
27	0xbcafa01a	-0.021438647
28	0x3cad11ee	0.021126714
29	0x3d1c3c5f	0.03814351
30	0x3ce913f6	0.0284519
31	0x3ba21428	0.0049462505
32	0x3d6999b7	0.05703136
33	0xbc3c32c8	-0.011486717
34	0x3d49d38d	0.049274016
35	0xbc697914	-0.014250059
36	0x3c63affc	0.013896938
37	0x3c11970c	0.00888611
38	0x3d5f8755	0.054572422
39	0x3a054ec0	0.0005085282
40	0xbd201496	-0.039082132
41	0xbd485e4b	-0.04891805
42	0xbd5789ac	-0.05262153
43	0x3cce3eba	0.025176395
44	0x3b9c96c8	0.0047787167
45	0x3d46c93d	0.04853176
46	0xbd4dbb28	-0.050227314
47	0x3d166a65	0.03672256
48	0xbd18e83b	-0.037330847
49	0x3d553f8b	0.052062552
50	0xbd176fb2	-0.036971755
51	0x3cf2079e	0.029544648
52	0xbba07a20	-0.004897371
53	0x3d6819e5	0.05666532
54	0x3d4d53f5	0.050128896
55	0x3d375fe7	0.044769194
56	0xbb56c7d0	-0.0032772906
57	0xbd3c6280	-0.045992374
58	0x3d5081bf	0.050904986
59	0xbd6b2997	-0.05741271
60	0x3ccd97e2	0.025096837
61	0x3c23db94	0.010001082
62	0xbbf3cc10	-0.0074400976
63	0x3d2cc97f	0.04218435
64	0xbd350d50	-0.04420215
65	0xbcfe9e01	-0.031081202
66	0xbd15e606	-0.03659632
67	0x3d320e95	0.043470938
68	0x3d5f8c71	0.054577295
69	0x3c1e2ecc	0.009654712
70	0xba128000	-0.00055885315
71	0xbc76d4b8	-0.015065365
72	0xbd46c190	-0.04852444
73	0xbb3971e0	-0.0028296635
74	0xbcc23146	-0.023705136
75	0xbd3d0da7	-0.046155598
76	0x3d22dce7	0.03976145
77	0x3cf4c176	0.029877406
78	0x3d43ca7b	0.047800522
79	0xbc0bf9b4	-0.008543421
80	0x3cc37c42	0.023862962
81	0x3d2e4b91	0.042552534
82	0xbd048b5c	-0.032359466
83	0xbc66b000	-0.014080048
84	0x3d33036f	0.043704446
85	0x3d29c3d7	0.041446533
86	0x3d223c11	0.039608065
87	0x3bf30df8	0.0074174367
88	0xbd488b04	-0.0489607
89	0xbd4a50cf	-0.04939347
90	0x3d08c3c5	0.033389825
91	0x3cb09c9a	0.021559048
92	0xbc8ae81c	-0.016956381
93	0xbc643f98	-0.013931178
94	0xbd3571bc	-0.04429792
95	0x3d54d15d	0.051957477
96	0xbca1e57c	-0.019762747
97	0xbb08a4d0	-0.002085019
98	0xbcc032f8	-0.023461804
99	0xbca01de4	-0.019545503
100	0xbd497aae	-0.049189262
101	0x3d3597b9	0.044334147
102	0xbd51a3d0	-0.051181614
103	0xbd14be72	-0.036314435
104	0xbd362f83	-0.044478904
105	0x3b8736c8	0.0041264035
106	0xbd019413	-0.031635355
107	0x3d35b1e3	0.0443591
108	0xbc717b40	-0.014738858
109	0x3d065f43	0.032805692
110	0x3d56c8cd	0.052437592
111	0xbd6ce894	-0.05783899
112	0x3b5c3300	0.0033599734
113	0xbd6119d0	-0.054956257
114	0x3ca7800a	0.020446796
115	0xb9ab3a00	-0.00032658875
116	0xbc992fec	-0.018699609
117	0xbd690fda	-0.056899883
118	0x3c4275b4	0.011868883
119	0xbd4095c1	-0.047017816
120	0xbd5ad717	-0.053427782
121	0xbce7dc39	-0.028303253
122	0x3d0f299d	0.034951795
123	0x3d28eee3	0.041243445
124	0x3d48921f	0.048967477
125	0xba826de0	-0.0009950958
126	0x3c67156c	0.0141042285
127	0xbcb3cb9a	-0.02194767
128	0xbd40dc77	-0.04708525
129	0xbc87c9fc	-0.016575806
130	0xbd697e60	-0.057005286
131	0xbc1e61ec	-0.009666901
132	0x3d082b7d	0.0332446
133	0xbb9a5710	-0.0047100857
134	0xbd2ebcc1	-0.04266048
135	0x3c942b56	0.01808707
136	0x3c93dec6	0.018050563
137	0x3c3009b4	0.010744501
138	0x3d580df5	0.052747685
139	0xbca72d90	-0.020407468
140	0x3d3baec1	0.045820955
141	0xbc8b082a	-0.016971666
142	0x3d69e51f	0.057103273
143	0xbd131dff	-0.03591728
144	0x3c6c0c5c	0.014407244
145	0xbd665323	-0.05623163
146	0xbca71aee	-0.020398583
147	0x3cc9cefe	0.024634834
148	0x3b2ee600	0.0026687384
149	0x3d2dbd7b	0.04241703
150	0xbd5c7ac0	-0.053828
151	0x3b011f00	0.0019702315
152	0xbc197104	-0.009365324
153	0xbc613178	-0.013744704
154	0xbc5ea284	-0.013588551
155	0x3a1c9140	0.00059725717
156	0x3cc68976	0.024235468
157	0xbbf60238	-0.0075075887
158	0xbcdca704	-0.026935108
159	0x3c9459fa	0.01810931
160	0xbd0138c4	-0.031548277
161	0x3c15d6c4	0.009145442
162	0xbc648280	-0.013947129
163	0x3d56c2ff	0.052432057
164	0x3c9eb27e	0.019372221
165	0xbd1f3952	-0.038873024
166	0xbc985e4e	-0.018599655
167	0x3c9b202a	0.018936235
168	0xbd10ea6a	-0.035379805
169	0xbcfe851f	-0.031069336
170	0xbc36c29c	-0.011154797
171	0xbc16a6c8	-0.009195037
172	0xbc1dbe1c	-0.009627845
173	0x3d55f251	0.052233044
174	0xbcece2a4	-0.028916664
175	0x3c6b7adc	0.014372554
176	0xbcbf8a34	-0.02338133
177	0x3ca7dd92	0.020491395
178	0x3cced9f6	0.025250416
179	0x3d5d187f	0.05397844
180	0xbd19e69d	-0.037573446
181	0xbca02830	-0.019550413
182	0x3c60a404	0.013710979
183	0x3d46443f	0.04840493
184	0xbd266050	-0.040619195
185	0xbd59489f	-0.053047772
186	0xbd359b70	-0.04433769
187	0x3a094880	0.00052369386
188	0xbd666ea6	-0.056257866
189	0xba9d6100	-0.0012007058
190	0xbc890168	-0.016724303
191	0xbb7c34a0	-0.0038483515
192	0x3b467e70	0.0030287765
193	0xbce633aa	-0.028100807
194	0x3c90973e	0.017650243
195	0xbd42bc24	-0.047542706
196	0xbd6d60da	-0.057953693
197	0x3d3044a9	0.04303423
198	0xbcd7e80c	-0.026355766
199	0xbca80b1c	-0.02051311
200	0xbd00d3e2	-0.031452067
201	0xbc741b10	-0.01489903
202	0xbc02bb50	-0.007979229
203	0xbd41828e	-0.047243647
204	0xbd250c64	-0.04029502
205	0xbcde9498	-0.027170464
206	0x3c39e5ec	0.011346322
207	0xbd134bb1	-0.035960857
208	0x3bd0a9c8	0.0063678958
209	0xbd2e18eb	-0.042504232
210	0xbcb43852	-0.021999512
211	0x3d507add	0.05089842
212	0xbba487f0	-0.005021088
213	0x3c29de64	0.010367963
214	0x3d5d0bbf	0.05396628
215	0x3a1bcf80	0.00059437007
216	0xbd501679	-0.05080268
217	0xbd2c4dfc	-0.04206656
218	0x3ca7e326	0.020494055
219	0x3d1a569f	0.037680265
220	0x3c4d8924	0.012544904
221	0x3d39965f	0.04530942
222	0x3caae2e2	0.02086014
223	0x3cddaac6	0.02705897
224	0x3d0e8af9	0.034800503
225	0x3c77468c	0.015092503
226	0x3c941fae	0.018081512
227	0x3cdcf396	0.02697162
228	0x3b4e2c50	0.0031459518
229	0x3d19a135	0.037507255
230	0x3ce811f6	0.028328877
231	0xbd4ef173	-0.050523233
232	0x3d5fc0d9	0.054627273
233	0x3d49ec53	0.049297642
234	0x3c1d315c	0.009594288
235	0xbd0d8dab	-0.034558933
236	0x3d68cd93	0.056836676
237	0x3b5066e0	0.00317996
238	0xbd4b5c9b	-0.049648862
239	0x3d2d5c65	0.042324442
240	0x3b1bf1f0	0.002379533
241	0x3d3d3ed3	0.046202492
242	0xbcbdd9c6	-0.023175132
243	0x3d4e148b	0.05031256
244	0xbc3a467c	-0.011369344
245	0x3d24da73	0.040247392
246	0xbd0f6036	-0.035003863
247	0x3d36726b	0.04454271
248	0xbbc3b0d0	-0.0059720054
249	0x3cd0f396	0.025506776
250	0xbd251994	-0.040307596
251	0xbcb998f0	-0.022655934
252	0xbc23293c	-0.0099585615
253	0x3d45ee4f	0.048322972
254	0xbbe69138	-0.0070363544
255	0x3cd75bc2	0.02628887

iim.final_fuse.3.bias f4 [3]
0	0x3d196d1d	0.037457574
1	0xbd55326c	-0.05205004
2	0xbce2c3ef	-0.027681319

iim.iim.filter f4 [8, 1, 3, 3]
0	0xbd1f26da	-0.03885541
1	0xbdaf2ce1	-0.08553482
2	0x3e825180	0.25452805
3	0x3f0bbea1	0.5458775
4	0xbecdd3c2	-0.4020062
5	0x3e233ae7	0.15940438
6	0xbe20d355	-0.15705617
7	0xbeb8af57	-0.36071274
8	0x3e6d5e34	0.23180467
9	0xbe64b48b	-0.22334497
10	0x3f450700	0.76963806
11	0x3e553218	0.2081989
12	0x3f26252c	0.6490047
13	0x3d242efe	0.040083878
14	0x3ec78ef0	0.3897624
15	0xbe1fc8bf	-0.15603922
16	0xbdbb7090	-0.09152329
17	0xbef2cdf3	-0.47422752
18	0x3d5c6aad	0.05381267
19	0x3e89162c	0.26774728
20	0xbef28c5c	-0.4737271
21	0xbc3bcc9a	-0.011462355
22	0xbf079354	-0.5295918
23	0xbe877c97	-0.26462242
24	0x3ea805f4	0.32817042
25	0x3cbc4a0d	0.022984529
26	0x3eb7c953	0.35895786
27	0x3f82589a	1.0183289
28	0xbdb61b94	-0.08891979
29	0xbe5aaa83	-0.21354108
30	0x3ecbe9c8	0.39826798
31	0x3eb23e54	0.34813178
32	0x3ee53649	0.4476798
33	0x3eb871a5	0.36024204
34	0xbe950a07	-0.29109213
35	0xbe788657	-0.24269997
36	0x3e77b810	0.24191308
37	0x3ee25e4f	0.44212577
38	0x3eeb3047	0.4593527
39	0xbf944cd9	-1.1585952
40	0xbe00e282	-0.12586406
41	0x3e3081ee	0.17237064
42	0xbddcbe4b	-0.10778483
43	0xbea89f75	-0.32934156
44	0x3ece4de3	0.40293798
45	0x3e049281	0.12946512
46	0x3e9d0bed	0.3067316
47	0xbd97ddf8	-0.07415384
48	0xbeb51feb	-0.35375914
49	0xbd0a16bb	-0.033713084
50	0xbda2cf4d	-0.07949696
51	0xbb1d9d0b	-0.0024049904
52	0xbe4e93aa	-0.20173517
53	0xbeeb9e26	-0.46019095
54	0x3ca2bfae	0.01986679
55	0x3f3dc8ac	0.74134326
56	0xbe990ace	-0.29891056
57	0x3e8c2c6a	0.27377635
58	0x3ea20a9a	0.31648713
59	0x3dd3d8c8	0.10344082
60	0x3e987a2f	0.2978072
61	0xbf3e8200	-0.74417114
62	0x3e99d9cf	0.30048987
63	0xbe8aabcf	-0.27084205
64	0x3eb6619b	0.35621342
65	0xbef79709	-0.48357418
66	0xbed633b0	-0.4183631
67	0xbf04011f	-0.5156421
68	0xbeec2ce6	-0.46128005
69	0x3f2ca476	0.6743845
70	0xbf3e88c5	-0.74427444
71	0xbfb19a00	-1.3875122

iim.iim.rg_bn.weight f4 [8]
0	0x3c23d70a	0.01
1	0x3c23d70a	0.01
2	0x3c23d70a	0.01
3	0x3c23d70a	0.01
4	0x3c23d70a	0.01
5	0x3c23d70a	0.01
6	0x3c23d70a	0.01
7	0x3c23d70a	0.01

iim.iim.rg_bn.bias f4 [8]
0	0x00000000	0.0
1	0x00000000	0.0
2	0x00000000	0.0
3	0x00000000	0.0
4	0x00000000	0.0
5	0x00000000	0.0
6	0x00000000	0.0
7	0x00000000	0.0

iim.iim.rg_bn.running_mean f4 [8]
0	0x00000000	0.0
1	0x00000000	0.0
2	0x00000000	0.0
3	0x00000000	0.0
4	0x00000000	0.0
5	0x00000000	0.0
6	0x00000000	0.0
7	0x00000000	0.0

iim.iim.rg_bn.running_var f4 [8]
0	0x3f800000	1.0
1	0x3f800000	1.0
2	0x3f800000	1.0
3	0x3f800000	1.0
4	0x3f800000	1.0
5	0x3f800000	1.0
6	0x3f800000	1.0
7	0x3f800000	1.0

iim.iim.gb_bn.weight f4 [8]
0	0x3c23d70a	0.01
1	0x3c23d70a	0.01
2	0x3c23d70a	0.01
3	0x3c23d70a	0.01
4	0x3c23d70a	0.01
5	0x3c23d70a	0.01
6	0x3c23d70a	0.01
7	0x3c23d70a	0.01

iim.iim.gb_bn.bias f4 [8]
0	0x00000000	0.0
1	0x00000000	0.0
2	0x00000000	0.0
3	0x00000000	0.0
4	0x00000000	0.0
5	0x00000000	0.0
6	0x00000000	0.0
7	0x00000000	0.0

iim.iim.gb_bn.running_mean f4 [8]
0	0x00000000	0.0
1	0x00000000	0.0
2	0x00000000	0.0
3	0x00000000	0.0
4	0x00000000	0.0
5	0x00000000	0.0
6	0x00000000	0.0
7	0x00000000	0.0

iim.iim.gb_bn.running_var f4 [8]
0	0x3f800000	1.0
1	0x3f800000	1.0
2	0x3f800000	1.0
3	0x3f800000	1.0
4	0x3f800000	1.0
5	0x3f800000	1.0
6	0x3f800000	1.0
7	0x3f800000	1.0

iim.iim.rb_bn.weight f4 [8]
0	0x3c23d70a	0.01
1	0x3c23d70a	0.01
2	0x3c23d70a	0.01
3	0x3c23d70a	0.01
4	0x3c23d70a	0.01
5	0x3c23d70a	0.01
6	0x3c23d70a	0.01
7	0x3c23d70a	0.01

iim.iim.rb_bn.bias f4 [8]
0	0x00000000	0.0
1	0x00000000	0.0
2	0x00000000	0.0
3	0x00000000	0.0
4	0x00000000	0.0
5	0x00000000	0.0
6	0x00000000	0.0
7	0x00000000	0.0

iim.iim.rb_bn.running_mean f4 [8]
0	0x00000000	0.0
1	0x00000000	0.0
2	0x00000000	0.0
3	0x00000000	0.0
4	0x00000000	0.0
5	0x00000000	0.0
6	0x00000000	0.0
7	0x00000000	0.0

iim.iim.rb_bn.running_var f4 [8]
0	0x3f800000	1.0
1	0x3f800000	1.0
2	0x3f800000	1.0
3	0x3f800000	1.0
4	0x3f800000	1.0
5	0x3f800000	1.0
6	0x3f800000	1.0
7	0x3f800000	1.0
